…
tch': <function get_batch at 0x1517eafb68e0>, 'estimate_loss': <function estimate_loss at 0x1517eafb71a0>, 'calculate_iterations': <function calculate_iterations at 0x1517eafb7240>, 'human_readable': <function human_readable at 0x1517eafb72e0>, 'size': '2M', 'data_dir': 'data/2M', 'train_file': 'data/2M/train.txt', 'val_file': 'data/2M/val.txt', 'num_iters': 4183, 'miles': [2928, 3346, 3764], 'train_data': memmap([28,  2, 25, ...,  2, 21, 18], dtype=uint16), 'val_data': memmap([30,  2, 25, ...,  2, 14, 17], dtype=uint16), 'model': OptimizedModule(
  (_orig_mod): GPT(
    (token_embedding_table): Embedding(53, 120)
    (position_embedding_table): Embedding(256, 120)
    (blocks): Sequential(
      (0): Block(
        (sa): MultiHeadAttention(
          (heads): ModuleList(
            (0-5): 6 x Head(
              (key): Linear(in_features=120, out_features=20, bias=False)
              (query): Linear(in_features=120, out_features=20, bias=False)
              (value): Linear(in_features=120, out_features=20, bias=False)
              (dropout): Dropout(p=0, inplace=False)
            )
          )
          (proj): Linear(in_features=120, out_features=120, bias=True)
          (dropout): Dropout(p=0, inplace=False)
        )
        (ffwd): FeedForward(
          (net): Sequential(
            (0): Linear(in_features=120, out_features=480, bias=False)
            (1): GELU(approximate='none')
            (2): Linear(in_features=480, out_features=120, bias=False)
            (3): Dropout(p=0, inplace=False)
          )
        )
        (ln1): LayerNorm((120,), eps=1e-05, elementwise_affine=True)
        (ln2): LayerNorm((120,), eps=1e-05, elementwise_affine=True)
      )
      (1): Block(
        (sa): MultiHeadAttention(
          (heads): ModuleList(
            (0-5): 6 x Head(
              (key): Linear(in_features=120, out_features=20, bias=False)
              (query): Linear(in_features=120, out_features=20, bias=False)
              (value): Linear(in_features=120, out_features=20, bias=False)
              (dropout): Dropout(p=0, inplace=False)
            )
          )
          (proj): Linear(in_features=120, out_features=120, bias=True)
          (dropout): Dropout(p=0, inplace=False)
        )
        (ffwd): FeedForward(
          (net): Sequential(
            (0): Linear(in_features=120, out_features=480, bias=False)
            (1): GELU(approximate='none')
            (2): Linear(in_features=480, out_features=120, bias=False)
            (3): Dropout(p=0, inplace=False)
          )
        )
        (ln1): LayerNorm((120,), eps=1e-05, elementwise_affine=True)
        (ln2): LayerNorm((120,), eps=1e-05, elementwise_affine=True)
      )
      (2): Block(
        (sa): MultiHeadAttention(
          (heads): ModuleList(
            (0-5): 6 x Head(
              (key): Linear(in_features=120, out_features=20, bias=False)
              (query): Linear(in_features=120, out_features=20, bias=False)
              (value): Linear(in_features=120, out_features=20, bias=False)
              (dropout): Dropout(p=0, inplace=False)
            )
          )
          (proj): Linear(in_features=120, out_features=120, bias=True)
          (dropout): Dropout(p=0, inplace=False)
        )
        (ffwd): FeedForward(
          (net): Sequential(
            (0): Linear(in_features=120, out_features=480, bias=False)
            (1): GELU(approximate='none')
            (2): Linear(in_features=480, out_features=120, bias=False)
            (3): Dropout(p=0, inplace=False)
          )
        )
        (ln1): LayerNorm((120,), eps=1e-05, elementwise_affine=True)
        (ln2): LayerNorm((120,), eps=1e-05, elementwise_affine=True)
      )
      (3): Block(
        (sa): MultiHeadAttention(
          (heads): ModuleList(
            (0-5): 6 x Head(
              (key): Linear(in_features=120, out_features=20, bias=False)
              (query): Linear(in_features=120, out_features=20, bias=False)
              (value): Linear(in_features=120, out_features=20, bias=False)
              (dropout): Dropout(p=0, inplace=False)
            )
          )
          (proj): Linear(in_features=120, out_features=120, bias=True)
          (dropout): Dropout(p=0, inplace=False)
        )
        (ffwd): FeedForward(
          (net): Sequential(
            (0): Linear(in_features=120, out_features=480, bias=False)
            (1): GELU(approximate='none')
            (2): Linear(in_features=480, out_features=120, bias=False)
            (3): Dropout(p=0, inplace=False)
          )
        )
        (ln1): LayerNorm((120,), eps=1e-05, elementwise_affine=True)
        (ln2): LayerNorm((120,), eps=1e-05, elementwise_affine=True)
      )
      (4): Block(
        (sa): MultiHeadAttention(
          (heads): ModuleList(
            (0-5): 6 x Head(
              (key): Linear(in_features=120, out_features=20, bias=False)
              (query): Linear(in_features=120, out_features=20, bias=False)
              (value): Linear(in_features=120, out_features=20, bias=False)
              (dropout): Dropout(p=0, inplace=False)
            )
          )
          (proj): Linear(in_features=120, out_features=120, bias=True)
          (dropout): Dropout(p=0, inplace=False)
        )
        (ffwd): FeedForward(
          (net): Sequential(
            (0): Linear(in_features=120, out_features=480, bias=False)
            (1): GELU(approximate='none')
            (2): Linear(in_features=480, out_features=120, bias=False)
            (3): Dropout(p=0, inplace=False)
          )
        )
        (ln1): LayerNorm((120,), eps=1e-05, elementwise_affine=True)
        (ln2): LayerNorm((120,), eps=1e-05, elementwise_affine=True)
      )
      (5): Block(
        (sa): MultiHeadAttention(
          (heads): ModuleList(
            (0-5): 6 x Head(
              (key): Linear(in_features=120, out_features=20, bias=False)
              (query): Linear(in_features=120, out_features=20, bias=False)
              (value): Linear(in_features=120, out_features=20, bias=False)
              (dropout): Dropout(p=0, inplace=False)
            )
          )
          (proj): Linear(in_features=120, out_features=120, bias=True)
          (dropout): Dropout(p=0, inplace=False)
        )
        (ffwd): FeedForward(
          (net): Sequential(
            (0): Linear(in_features=120, out_features=480, bias=False)
            (1): GELU(approximate='none')
            (2): Linear(in_features=480, out_features=120, bias=False)
            (3): Dropout(p=0, inplace=False)
          )
        )
        (ln1): LayerNorm((120,), eps=1e-05, elementwise_affine=True)
        (ln2): LayerNorm((120,), eps=1e-05, elementwise_affine=True)
      )
    )
    (ln_f): LayerNorm((120,), eps=1e-05, elementwise_affine=True)
    (lm_head): Linear(in_features=120, out_features=53, bias=True)
  )
), 'optimizer': AdamW (
Parameter Group 0
    amsgrad: False
    betas: (0.9, 0.999)
    capturable: False
    differentiable: False
    eps: 1e-08
    foreach: None
    fused: None
    initial_lr: 0.001
    lr: 0.001
    maximize: False
    weight_decay: 0.01
), 'scheduler': <torch.optim.lr_scheduler.MultiStepLR object at 0x1517cdd8a150>, 'num_parameters': 1082573, 'num_parameters_hr': '1M', 'start_time': 1724850982.9610143, 'iter': 0, 'losses': {'train': tensor(4.0822), 'val': tensor(4.0822)}, 'wandb': <module 'wandb' from '/scratch/mn3620/pfe-best-tlm/venv/lib/python3.11/site-packages/wandb/__init__.py'>}
…
